Image Classification/converted_model.tflite (tflite, 408276 bytes, 4 tensors)

sequential_11/dense_22/MatMul/ReadVariableOp/transpose f4 [128, 784]
0	0xbe47f68e	-0.19527647
1	0xbe9628f7	-0.2932813
2	0xbe614bb8	-0.2200154
3	0x3d479784	0.04872848
4	0xbd216e7a	-0.039412
5	0xbc139475	-0.009007563
6	0xbf032357	-0.512258
7	0xbf159394	-0.5842831
8	0xbd82f1af	-0.06393754
9	0x3e66a5ad	0.22524138
10	0x3de0e330	0.109808326
11	0xbe203578	-0.15645397
12	0xbb2fafdf	-0.0026807708
13	0x3e382172	0.17981508
14	0x3e2c5f8c	0.16833323
15	0x3e244841	0.16043188
16	0xbd728786	-0.059211276
17	0xbe8ec20c	-0.2788242
18	0xbe06a47d	-0.13148685
19	0xbe91a999	-0.28449705
20	0xbf175ae3	-0.5912306
21	0xbf4752ab	-0.77860516
22	0xbef6c974	-0.48200572
23	0xbe4a47e9	-0.19753994
24	0x3d7f13e6	0.062274836
25	0x3e0c6ebd	0.13714118
26	0xbd86f770	-0.06590164
27	0xbe9574b4	-0.291906
28	0xbea36450	-0.3191247
29	0xbe09697f	-0.1341915
30	0x3db27848	0.08714348
31	0x3d8bca2a	0.06825669
32	0x3e4f2388	0.20228398
33	0x3e5bd805	0.21469124
34	0xbe06567c	-0.13118929
35	0x3cbc0428	0.0229512
36	0x3df9c0a5	0.12194947
37	0xbda227ab	-0.07917722
38	0xbdb01a99	-0.08598823
39	0xbdf34185	-0.11877731
40	0x3d68d5ef	0.056844648
41	0xbc6f3927	-0.0146010285
42	0xbe88275d	-0.26592532
43	0x3deca797	0.11555403
44	0x3da79031	0.08181799
45	0xbdba4273	-0.090947054
46	0xbe95b432	-0.2923904
47	0xbe3b64ba	-0.18300143
48	0xbe6226ed	-0.22085162
49	0xbed5ebd0	-0.41781473
50	0xbeaf71df	-0.34266564
51	0xbe542df1	-0.2072065
52	0xb9604845	-0.00021389227
53	0xbd831c11	-0.064018376
54	0xbe25fe49	-0.16210283
55	0xbebb331f	-0.3656244
56	0xbe05401d	-0.13012739
57	0x3f047258	0.51736975
58	0x3ebb239c	0.36550605
59	0xbd37ec69	-0.044903193
60	0xbde12f3d	-0.10995338
61	0x3d0c992d	0.034325767
62	0x3e70be05	0.23509987
63	0x3ea40f67	0.32043
64	0xbce3a1f8	-0.027787194
65	0xbd555bba	-0.05208943
66	0x3d8ff610	0.070293546
67	0x3d2b9512	0.04189021
68	0x3e1e5d64	0.15465313
69	0x3d09a7be	0.033607237
70	0xbe32a8b4	-0.17447168
71	0x3e02407c	0.12719911
72	0x3dfe8ce3	0.12429216
73	0xbca70558	-0.02038829
74	0x3dc9f200	0.09860611
75	0xbc14e1a0	-0.009086996
76	0x3e140906	0.14456567
77	0x3d8f873f	0.07008218
78	0xbdc7518e	-0.09732352
79	0xbe1b2d8e	-0.15154096
80	0xbe6fc456	-0.2341474
81	0xbdf9885f	-0.12184214
82	0xbe9328ea	-0.28742152
83	0xbd2973c0	-0.041370153
84	0x3eba98c9	0.3644469
85	0x3ebf390a	0.37348205
86	0x3e2e55ec	0.17024964
87	0x3d5349e6	0.051584147
88	0xbb3e4180	-0.002903074
89	0x3e4d896c	0.20071954
90	0x3e0c7420	0.13716173
91	0x3e2aec94	0.1669181
92	0x3d986cdd	0.07442639
93	0x3bb786a5	0.0056007677
94	0x3d80ce0f	0.062893026
95	0xbd95585e	-0.07292245
96	0x3daf6890	0.085648656
97	0xbdc1059d	-0.09424899
98	0xbd2dd99b	-0.042443853
99	0xbb9699c4	-0.004595967
100	0xbc095d77	-0.0083841
101	0xbdc4e53e	-0.09614037
102	0xbd9dc5e8	-0.07703763
103	0xbd885a6f	-0.06657874
104	0x3e325ee4	0.1741901
105	0x3e450af9	0.19242467
106	0xbbc382b6	-0.0059665097
107	0xbe598932	-0.21243742
108	0xbd147ffa	-0.03625486
109	0xbdb7aafc	-0.089681596
110	0x3e20f3b2	0.15717962
111	0x3dc5d732	0.09660186
112	0x3e7d6caa	0.24748483
113	0x3e872285	0.26393524
114	0x3d8d78fb	0.06907841
115	0x3d1ea800	0.038734436
116	0x3e89d411	0.26919606
117	0xbd6ca3e2	-0.05777348
118	0x3d597597	0.053090658
119	0x3e129b5b	0.14317076
120	0xba8fa6ef	-0.0010959784
121	0x3dc1fa10	0.09471524
122	0xbd80ee00	-0.06295395
123	0xbe00a12d	-0.12561484
124	0xbe55a7e5	-0.20864828
125	0x3d65afe4	0.056075945
126	0x3d9338bf	0.07188558
127	0xbdc29297	-0.09500616
128	0xbd6100aa	-0.054932274
129	0xbd8b23d6	-0.067939445
130	0x3e1878bd	0.14889808
131	0xbc05c828	-0.008165397
132	0xbced125d	-0.02893942
133	0x3e43e355	0.19129689
134	0xbdc2c753	-0.09510674
135	0xbce117e4	-0.027477212
136	0x3d538044	0.051635996
137	0xbde20cba	-0.11037584
138	0x3da777c6	0.08177142
139	0x3ea8df4b	0.3298286
140	0x3e251d76	0.1612452
141	0x3e7f5c20	0.24937487
142	0x3b43352c	0.0029786332
143	0x3de0587c	0.10954377
144	0xbd5090b5	-0.050919253
145	0x3ca6bb9d	0.020353133
146	0x3e81c3d2	0.25344712
147	0x3e13d64d	0.14437218
148	0xbe236e59	-0.15960063
149	0x3c6e1a95	0.014532705
150	0xbcd7a568	-0.026323989
151	0x3c7588a5	0.014986192
152	0xbdef5c95	-0.116875805
153	0xbd3c016b	-0.04589979
154	0xbd8cacb8	-0.06868881
155	0xbdb48fe7	-0.0881651
156	0xbd48c750	-0.049018204
157	0xbcaa55d1	-0.020792874
158	0x3d1e4eed	0.03864949
159	0xbca1e6f0	-0.01976344
160	0x3dbb1e7e	0.09136675
161	0x3eacc6b0	0.33745337
162	0x3b5d8d4c	0.0033806143
163	0x3c968fc1	0.018379094
164	0xbcafce5b	-0.021460703
165	0xbe472ef4	-0.19451505
166	0xba4da5cc	-0.0007844835
167	0x3eb9e780	0.36309433
168	0xbd531ca3	-0.051540982
169	0xbd63cb32	-0.055613704
170	0xbd8340bd	-0.06408832
171	0x3e6a37ea	0.22872892
172	0x3c6dd80a	0.01451684
173	0x3e358159	0.17725123
174	0x3e8144aa	0.252477
175	0x3e5ca231	0.21546246
176	0xbdc6e8ff	-0.09712409
177	0xbdc85ce2	-0.09783341
178	0xbdfa2589	-0.122141905
179	0xbe1cf295	-0.15326913
180	0xbd03a030	-0.03213519
181	0xbd87b3e7	-0.066261105
182	0x3d8c7727	0.06858664
183	0xbd9343d0	-0.071906686
184	0xbdf5c842	-0.12001087
185	0x3cfddf92	0.030990396
186	0x3db93f73	0.09045305
187	0x3b35505a	0.0027666301
188	0x3da36ff2	0.07980336
189	0x3db89eb7	0.090146475
190	0x3e2b543a	0.16731349
191	0x3cf47165	0.029839227
192	0x3cd702b6	0.02624641
193	0xbe190cfc	-0.1494636
194	0xbd89a8eb	-0.06721672
195	0xbcc532fd	-0.024072165
196	0xbe45c468	-0.19313204
197	0xbea7a125	-0.3274013
198	0xbde774e2	-0.113015905
199	0x3e142134	0.14465791
200	0x3c5dc2e6	0.013535237
201	0x3e239369	0.15974201
202	0x3e1d560e	0.15364859
203	0x3ed3da15	0.4137732
204	0xbd0debd4	-0.03464873
205	0x3cb9a238	0.02266036
206	0xbd9ca250	-0.07648146
207	0xbde1d75e	-0.11027406
208	0xbd8167eb	-0.06318649
209	0xbdedd87b	-0.11613556
210	0x3abfa7e9	0.0014622185
211	0xbb047dd7	-0.0020216608
212	0xbe04e7d4	-0.1297906
213	0xbcae456c	-0.021273337
214	0x3d0ae46a	0.03390924
215	0xbd6562f8	-0.056002587
216	0xbdba633c	-0.09100959
217	0x3dac88bb	0.08424517
218	0xbb190037	-0.0023346075
219	0x3d97c1db	0.07410022
220	0xbcb69058	-0.022285625
221	0xbcd665d9	-0.026171612
222	0xbdd40fcf	-0.10354578
223	0xbdb23836	-0.08702128
224	0xbdc43096	-0.095795795
225	0xbdabfa19	-0.08397312
226	0xbe2cbf83	-0.16869931
227	0xbb258e05	-0.0025261652
228	0xbe6f88d1	-0.23392035
229	0x3cbed6b6	0.023295742
230	0x3e02baef	0.12766622
231	0x3e8afe0b	0.27146944
232	0xbd43dcea	-0.047818102
233	0x3d40807a	0.046997525
234	0x3dcf0a69	0.101094075
235	0xbd60b4bd	-0.054859865
236	0xbe0910c0	-0.13385296
237	0xbe62b5f0	-0.22139716
238	0xbe0eae1f	-0.1393361
239	0xbda20eef	-0.079130046
240	0xbdeec610	-0.11658871
241	0x3ddbdee2	0.10735871
242	0x3e7053b6	0.23469433
243	0x3d143b33	0.03618927
244	0x3b578243	0.0032884039
245	0x3e116a5c	0.14200729
246	0x3db67bb3	0.089103125
247	0xbb897bce	-0.004195667
248	0xbc8763bf	-0.016527055
249	0x3dc9d8ed	0.098558284
250	0x3e0507ac	0.12991208
251	0x3da4d84b	0.08049067
252	0x3e679dd7	0.22618805
253	0x3d80b472	0.06284417
254	0xbdbc9246	-0.09207587
255	0xbe213451	-0.15742613

sequential_11/dense_22/MatMul_bias f4 [128]
0	0x3dd48613	0.10377135
1	0xbcd0ffa6	-0.025512528
2	0xbe9c7d78	-0.30564475
3	0x3cc9881d	0.024601037
4	0xbe000b76	-0.12504372
5	0xbea949b7	-0.33064052
6	0x3eed1ffa	0.4631346
7	0x3ee40f6c	0.44543016
8	0x3f0d8c91	0.5529261
9	0x3e861b5d	0.26192752
10	0xbe97c35d	-0.29641238
11	0xbc723e36	-0.01478534
12	0x3eea31ac	0.45741022
13	0x3e3650db	0.17804281
14	0x3efe74c7	0.4969847
15	0x3d3405f0	0.043950975
16	0x3de56bd2	0.11202206
17	0x3e6bcc49	0.23027147
18	0xbc0fdf34	-0.008781243
19	0xbe15be19	-0.14623298
20	0x3e639400	0.22224426
21	0x3ee8b95b	0.45453915
22	0xbd1f3956	-0.03887304
23	0x3e65a888	0.22427571
24	0x3ec152d6	0.3775851
25	0x3ec829ff	0.3909454
26	0x3e83c43e	0.25735658
27	0x3f0426c6	0.51621664
28	0x3b220908	0.0024724621
29	0xbe6be0da	-0.23034993
30	0x3d82c4f2	0.063852206
31	0x3e9b36b2	0.30315167
32	0x3ee71b37	0.4513795
33	0x3ecac44e	0.39602894
34	0xbbbb4ea6	-0.0057161627
35	0xbce634d5	-0.028101364
36	0x3eb9da91	0.36299565
37	0x3e9df9c2	0.30854613
38	0xbe9b43e3	-0.3032523
39	0x3e38838f	0.18018936
40	0xbd71571c	-0.058920965
41	0x3f0ad5fc	0.54232764
42	0x3e96ff5f	0.29491708
43	0x3f0992b0	0.5373945
44	0x3e54dc2a	0.20787111
45	0xbc837629	-0.016047554
46	0x3e96b937	0.29438183
47	0x3e92577b	0.28582367
48	0xbed7f192	-0.4217649
49	0x3ea28368	0.3174088
50	0x3da5ef2f	0.08102261
51	0xbe1001c0	-0.14063168
52	0xbe720496	-0.23634562
53	0x3db563ec	0.08856949
54	0x3e571fc4	0.21008211
55	0xbdbf96b5	-0.09354917
56	0x3f13bd6d	0.57710916
57	0x3e9e639c	0.3093537
58	0xbf04b126	-0.5183281
59	0x3e0af59a	0.13570252
60	0x3ec9610f	0.39331862
61	0x3f09c95d	0.5382288
62	0x3c8d4a6a	0.017247397
63	0x3ec188b4	0.3779961
64	0x3e6037b4	0.21896249
65	0x3f405f6d	0.7514561
66	0x3ef1f5e7	0.4725792
67	0x3e840f4e	0.25792927
68	0x3e4a5f6b	0.19762962
69	0xbee6c079	-0.4506872
70	0xbea59284	-0.32338345
71	0x3eb16780	0.34649277
72	0x3d098c24	0.033580914
73	0x3c834d3f	0.016028045
74	0xbc62d016	-0.013843557
75	0x3ee7e84a	0.4529441
76	0x3e90e040	0.2829609
77	0x3e689a99	0.22715224
78	0x3e59f4b4	0.21284753
79	0x3f1d9500	0.6155548
80	0xbe87df5b	-0.26537594
81	0xbc4442a9	-0.011978784
82	0x3e9df113	0.30847988
83	0x3ed3efd9	0.41393927
84	0x3f4b04b5	0.7930406
85	0x3e9897fa	0.2980345
86	0xbe07107e	-0.13189885
87	0x3f034479	0.51276356
88	0xbe5482f2	-0.20753077
89	0x3ef12d35	0.47104803
90	0x3ea0a850	0.31378412
91	0x3f1a60b0	0.60303783
92	0xbe8c8bba	-0.27450353
93	0x3f28910e	0.65846336
94	0x3e9fee4d	0.31236497
95	0x3e3a41b3	0.18189125
96	0x3efdb1c0	0.49549675
97	0x3f0ee903	0.558243
98	0x3d9516c7	0.07279735
99	0xbce9d943	-0.028545981
100	0x3f248b9a	0.64275515
101	0x3ea82112	0.3283773
102	0x3ea9015c	0.3300885
103	0xbc52e9cd	-0.012873125
104	0x3dc99b1c	0.09844038
105	0xbdda5e51	-0.10662521
106	0x3e60da28	0.2195822
107	0x3d6db521	0.058034066
108	0x3ec4aad5	0.38411584
109	0x3dea8e9d	0.114529826
110	0x3cfd5138	0.030922517
111	0x3e356fc1	0.17718412
112	0x3db28869	0.087174244
113	0x3dea50c7	0.11441188
114	0x3e79f9b7	0.24411665
115	0xbeb5e645	-0.35527244
116	0x3e37d6fa	0.17953101
117	0x3edb4d4c	0.4283241
118	0x3e39e2c0	0.18152905
119	0x3f20b723	0.62779444
120	0x3ea51f47	0.32250425
121	0x3eff1fa6	0.49828833
122	0x3da5bace	0.08092271
123	0x3edbe517	0.4294822
124	0x3ce7feeb	0.028319797
125	0x3e9a2f38	0.3011415
126	0x3f287eb2	0.6581832
127	0x3db7dca9	0.089776345

sequential_11/dense_23/MatMul/ReadVariableOp/transpose f4 [10, 128]
0	0x3dc04082	0.09387304
1	0x3cfea96f	0.031086652
2	0x3d82a57f	0.06379222
3	0x3e245c84	0.16050917
4	0x3e503115	0.20331223
5	0x3dda781c	0.1066744
6	0xbdb3fd30	-0.08788526
7	0xbf162676	-0.58652437
8	0x3e09723b	0.13422482
9	0x3df535b1	0.119731314
10	0xbc901ca0	-0.017591774
11	0xbd0e354e	-0.034718804
12	0xbf03ef93	-0.51537436
13	0xbe832a28	-0.256181
14	0xbec0cda3	-0.37656888
15	0xbcba4a36	-0.022740465
16	0xbf20b8de	-0.62782085
17	0xbea74dbf	-0.32676503
18	0x3cb008f5	0.021488646
19	0x3e9afcca	0.30270988
20	0x3d094a66	0.033518218
21	0xbcdc9a9c	-0.026929192
22	0x3e02b2c6	0.12763509
23	0xbda8236f	-0.082098834
24	0xbe237704	-0.1596337
25	0xbc9189ad	-0.017765844
26	0x3e1627a2	0.14663556
27	0x3e3c2b11	0.18375804
28	0xbd387c9b	-0.045040708
29	0x3d11e12c	0.03561513
30	0xbe35a040	-0.17736912
31	0xbe2ecc8a	-0.17070213
32	0x3e8bfcdd	0.27341357
33	0x3e7d85e7	0.24758111
34	0xbe00de6b	-0.12584846
35	0x3d979a33	0.07402458
36	0xbce22051	-0.0276033
37	0x3e802ec7	0.25035688
38	0xbdce1944	-0.10063413
39	0xbe7bf9b9	-0.2460698
40	0xbed36c6e	-0.41293663
41	0x3e7e1ad7	0.24814926
42	0x3dd06587	0.10175615
43	0x3ddb9b21	0.10722948
44	0xbce4c409	-0.027925508
45	0xbde65bbd	-0.112479664
46	0x3e175a1a	0.14780465
47	0xbe3de1c9	-0.18543161
48	0x3e589425	0.21150263
49	0xbd6b8ca0	-0.057507157
50	0x3e6dbf67	0.23217545
51	0xbe8994f4	-0.26871455
52	0xbebcb5e6	-0.36857527
53	0xbeb2cc12	-0.34921318
54	0x3de4c2e5	0.11169986
55	0x3c4551c0	0.0120434165
56	0x3eb0e1ce	0.34547275
57	0x3de34616	0.11097352
58	0xbd4f88ee	-0.050667696
59	0x3daac961	0.08339191
60	0xbf18c925	-0.5968192
61	0x3e12c0a6	0.14331302
62	0xbc9b150c	-0.018930934
63	0x3d9cacea	0.07650168
64	0x3e8d8453	0.27640018
65	0xbea4a302	-0.32155615
66	0x3e96c63e	0.29448122
67	0xbe5b2eac	-0.21404523
68	0xbed27343	-0.41103563
69	0x3d3c0591	0.045903746
70	0x3d9e2281	0.07721425
71	0x3d112188	0.03543237
72	0xbdeb2847	-0.11482292
73	0xbd33ab1b	-0.04386435
74	0xbd98e608	-0.0746575
75	0xbf2e1b38	-0.6801028
76	0xbf0c262b	-0.5474574
77	0xbe97bd53	-0.2963663
78	0x3dc5e282	0.096623436
79	0xbe9c9a91	-0.30586675
80	0xbd48ec86	-0.04905369
81	0x3d622083	0.055206787
82	0xbdfb6f1d	-0.122770526
83	0x3d17254b	0.0369008
84	0xbe35a57c	-0.17738909
85	0x3ddd1144	0.10794309
86	0xbe838bb7	-0.2569253
87	0x3e3aa5d3	0.1822732
88	0xbe5a4168	-0.21314013
89	0x3c633fb5	0.013870169
90	0x3ca08f05	0.019599447
91	0x3e224b56	0.15849051
92	0x3d8de2ae	0.06928001
93	0x3dd28a70	0.10280311
94	0xbea65c0f	-0.3249211
95	0xbe9ef539	-0.31046465
96	0x3e13eab2	0.14444998
97	0xbe922b09	-0.28548458
98	0xbdda4338	-0.10657352
99	0xbb963718	-0.0045842044
100	0xbc46c7e8	-0.012132622
101	0x3d8f63df	0.07001471
102	0xbb428485	-0.0029681039
103	0x3e39ae15	0.18132813
104	0xbd8fa0cf	-0.07013094
105	0x3dd9e9a2	0.10640265
106	0xbe12617c	-0.14295
107	0xbcd0fb44	-0.025510438
108	0x3e70d0b8	0.2351712
109	0x3d1531e1	0.03642452
110	0xbef7cc54	-0.48398077
111	0xbd889bb3	-0.06670322
112	0xbd8e05ec	-0.06934723
113	0xbefad2a4	-0.4898883
114	0x3df1c3d7	0.118049316
115	0xbe81dcbe	-0.25363725
116	0xbde00adc	-0.10939571
117	0x3daec5cd	0.08533821
118	0x3d88949d	0.06668971
119	0xbebec2bd	-0.3725795
120	0xbf006cb6	-0.5016588
121	0x3d71b132	0.059006877
122	0x3e1feb3e	0.15617082
123	0x3c9ca01b	0.019119313
124	0xbc055153	-0.008137065
125	0x3e3ff4a4	0.18745667
126	0xbe17dc96	-0.1483024
127	0x3c1d0b89	0.00958527
128	0xbf016fae	-0.50561035
129	0x3da67469	0.08127672
130	0x3eb0cb06	0.34529895
131	0xbdba62a1	-0.09100843
132	0x3dea2099	0.11431999
133	0x3e7dbde8	0.24779475
134	0xbd7bf69f	-0.061514493
135	0xbea47c3f	-0.32126042
136	0xbecf6980	-0.40510178
137	0xbea3a230	-0.31959677
138	0x3eabd108	0.33557916
139	0xbe33a576	-0.17543587
140	0x3e277ba4	0.16355759
141	0xbef999e8	-0.48750234
142	0xbd80c906	-0.06288342
143	0xbe7ba8db	-0.24576132
144	0xbe8b3213	-0.2718664
145	0x3ed4761c	0.4149636
146	0x3cfd4134	0.03091488
147	0xbf152026	-0.5825218
148	0xbea42029	-0.32055786
149	0xbf141548	-0.5784497
150	0xbe9eecf9	-0.3104017
151	0x3ea7ce3c	0.32774532
152	0xbe929fbf	-0.28637502
153	0xbb879abb	-0.0041383184
154	0xbeb0c438	-0.34524703
155	0xbead4ff2	-0.33850056
156	0xbd09f5a0	-0.033681512
157	0x3dd9491c	0.10609648
158	0x3d88bdeb	0.06676849
159	0xbf178876	-0.591926
160	0x3c10f924	0.008848462
161	0xbe1e1921	-0.15439273
162	0x3dcf3e20	0.10119271
163	0x3d2f3a8e	0.04278045
164	0xbe0842ca	-0.13306728
165	0xbe09bec2	-0.13451675
166	0xbd7f23df	-0.06229007
167	0x3f0553ff	0.5208129
168	0xbf049bc3	-0.51800174
169	0xbf0c355d	-0.54768926
170	0x3e92624f	0.28590629
171	0xbf2c929e	-0.6741122
172	0xbf174c97	-0.5910124
173	0x3e23f759	0.16012324
174	0xbe2a452e	-0.16627952
175	0x3d05ad24	0.032635823
176	0x3eaebb33	0.34127197
177	0x3e53dc60	0.20689535
178	0x3f0ca102	0.5493318
179	0xbf84f3d6	-1.0386913
180	0xbe2b1ebb	-0.16710941
181	0xbe364745	-0.17800625
182	0xbec9d9e0	-0.39424038
183	0x3e42772e	0.18990776
184	0xbf6f4d25	-0.9347709
185	0xbfd1935a	-1.6373093
186	0x3daad45a	0.08341284
187	0xbc6b7668	-0.014371492
188	0xbdd40281	-0.1035204
189	0xbe373e30	-0.17894816
190	0x3e5b9f52	0.21447495
191	0xbe10ebc9	-0.14152445
192	0xbd56e548	-0.052464753
193	0xbef343f8	-0.47512794
194	0xbee86741	-0.45391276
195	0xbd3eb1e3	-0.046556365
196	0xbee3f7a7	-0.4452488
197	0xbe289b0d	-0.16465397
198	0x3d8a77a0	0.06761098
199	0x3e8bf97b	0.27338776
200	0x3cf2fb0f	0.02966073
201	0x3e3081fb	0.17237084
202	0x3e814f0a	0.25255615
203	0xbe02688e	-0.12735197
204	0xbf44ce0c	-0.768769
205	0xbe1a8b8a	-0.15092292
206	0xbddf836d	-0.10913739
207	0x3ece90bd	0.40344802
208	0x3e867839	0.26263598
209	0x3caf239a	0.02137928
210	0xbf1557fd	-0.58337384
211	0xbd6f21a7	-0.058381703
212	0xbe099eb3	-0.13439445
213	0xbf41baa3	-0.7567541
214	0x3e26e0f3	0.16296749
215	0x3e1f419a	0.15552369
216	0x3ed8a8ec	0.42316377
217	0xbec920d2	-0.39282852
218	0x3eb886a8	0.36040235
219	0xbe91e598	-0.2849548
220	0xbceb95c9	-0.028757947
221	0x3dfe495e	0.124163374
222	0xbf3c1714	-0.73472714
223	0xbee9214b	-0.45533213
224	0xbea5f201	-0.32411197
225	0xbd584975	-0.05280443
226	0x3f036d3e	0.51338565
227	0xbe5fef26	-0.21868572
228	0xbec8961f	-0.39177033
229	0x3e4f59a0	0.20249033
230	0xbe94394e	-0.2894997
231	0x3d6bbb2d	0.05755155
232	0x3ec5c699	0.3862808
233	0x3e85de33	0.26146087
234	0xbedb5e46	-0.42845362
235	0xbe7efedb	-0.24901907
236	0xbe82e064	-0.2556182
237	0xbc3b3e11	-0.011428372
238	0x3e2e4da4	0.17021805
239	0xbd34dcc4	-0.04415585
240	0xbea35bae	-0.31905884
241	0x3ef21bad	0.4728674
242	0xbec9d10f	-0.39417312
243	0x3d9dd273	0.07706156
244	0x3d620e72	0.055189557
245	0xbe191753	-0.14950304
246	0xbf1d28df	-0.6139049
247	0x3e49a73d	0.19692703
248	0x3ee16321	0.44020942
249	0xbe9b9b88	-0.30392098
250	0x3d3bb871	0.045830194
251	0x3d443452	0.04790146
252	0xbe93f3ab	-0.2889684
253	0xbe015528	-0.12630141
254	0xbcd50b56	-0.026006382
255	0x3f43f6eb	0.7654864

sequential_11/dense_23/MatMul_bias f4 [10]
0	0xbd5865fe	-0.052831642
1	0xbea07f1e	-0.31346983
2	0x3e2ffed4	0.17187053
3	0x3e8fa2e0	0.2805395
4	0xbeb94d5f	-0.36191842
5	0x3de26355	0.11054102
6	0x3e3fc346	0.18726835
7	0x3e5e1cbf	0.21690653
8	0xbdde604b	-0.1085821
9	0xbefc18e4	-0.4923774
